…
2018-03-05 06:17:37.597981: I tensorflow/core/common_runtime/gpu/gpu_device.cc:1105] Found device 0 with properties: 
name: Tesla P100-PCIE-16GB major: 6 minor: 0 memoryClockRate(GHz): 1.3285
pciBusID: 0000:00:04.0
totalMemory: 15.90GiB freeMemory: 15.51GiB
2018-03-05 06:17:37.598004: I tensorflow/core/common_runtime/gpu/gpu_device.cc:1195] Creating TensorFlow device (/device:GPU:0) -> (device: 0, name: Tesla P100-PCIE-16GB, pci bus id: 0000:00:04.0, compute capability: 6.0)
_________________________________________________________________
Layer (type)                 Output Shape              Param #   
=================================================================
conv2d_1 (Conv2D)            (None, 112, 112, 64)      1792      
_________________________________________________________________
batch_normalization_1 (Batch (None, 112, 112, 64)      256       
_________________________________________________________________
max_pooling2d_1 (MaxPooling2 (None, 56, 56, 64)        0         
_________________________________________________________________
conv2d_2 (Conv2D)            (None, 28, 28, 64)        36928     
_________________________________________________________________
batch_normalization_2 (Batch (None, 28, 28, 64)        256       
_________________________________________________________________
max_pooling2d_2 (MaxPooling2 (None, 14, 14, 64)        0         
_________________________________________________________________
flatten_1 (Flatten)          (None, 12544)             0         
_________________________________________________________________
dense_1 (Dense)              (None, 148)               1856660   
_________________________________________________________________
dense_2 (Dense)              (None, 37)                5513      
=================================================================
Total params: 1,901,405
Trainable params: 1,901,149
Non-trainable params: 256
_________________________________________________________________
Training Now
Train on 11839 samples, validate on 1480 samples
Epoch 1/30
11839/11839 [==============================] - 26s 2ms/step - loss: 3.5309 - acc: 0.2095 - top_k_categorical_accuracy: 0.4991 - val_loss: 3.1050 - val_acc: 0.2696 - val_top_k_categorical_accuracy: 0.5736
…
