…
(3, 'block1_pool')
(4, 'block2_conv1')
(5, 'block2_conv2')
(6, 'block2_pool')
(7, 'block3_conv1')
(8, 'block3_conv2')
(9, 'block3_conv3')
(10, 'block3_conv4')
(11, 'block3_pool')
(12, 'block4_conv1')
(13, 'block4_conv2')
(14, 'block4_conv3')
(15, 'block4_conv4')
(16, 'block4_pool')
(17, 'block5_conv1')
(18, 'block5_conv2')
(19, 'block5_conv3')
(20, 'block5_conv4')
(21, 'block5_pool')
_________________________________________________________________
Layer (type)                 Output Shape              Param #   
=================================================================
input_1 (InputLayer)         (None, 224, 224, 3)       0         
_________________________________________________________________
block1_conv1 (Conv2D)        (None, 224, 224, 64)      1792      
_________________________________________________________________
block1_conv2 (Conv2D)        (None, 224, 224, 64)      36928     
_________________________________________________________________
block1_pool (MaxPooling2D)   (None, 112, 112, 64)      0         
_________________________________________________________________
block2_conv1 (Conv2D)        (None, 112, 112, 128)     73856     
_________________________________________________________________
block2_conv2 (Conv2D)        (None, 112, 112, 128)     147584    
_________________________________________________________________
block2_pool (MaxPooling2D)   (None, 56, 56, 128)       0         
_________________________________________________________________
block3_conv1 (Conv2D)        (None, 56, 56, 256)       295168    
_________________________________________________________________
block3_conv2 (Conv2D)        (None, 56, 56, 256)       590080    
_________________________________________________________________
block3_conv3 (Conv2D)        (None, 56, 56, 256)       590080    
_________________________________________________________________
block3_conv4 (Conv2D)        (None, 56, 56, 256)       590080    
_________________________________________________________________
block3_pool (MaxPooling2D)   (None, 28, 28, 256)       0         
_________________________________________________________________
block4_conv1 (Conv2D)        (None, 28, 28, 512)       1180160   
_________________________________________________________________
block4_conv2 (Conv2D)        (None, 28, 28, 512)       2359808   
_________________________________________________________________
block4_conv3 (Conv2D)        (None, 28, 28, 512)       2359808   
_________________________________________________________________
block4_conv4 (Conv2D)        (None, 28, 28, 512)       2359808   
_________________________________________________________________
block4_pool (MaxPooling2D)   (None, 14, 14, 512)       0         
_________________________________________________________________
block5_conv1 (Conv2D)        (None, 14, 14, 512)       2359808   
_________________________________________________________________
block5_conv2 (Conv2D)        (None, 14, 14, 512)       2359808   
_________________________________________________________________
block5_conv3 (Conv2D)        (None, 14, 14, 512)       2359808   
_________________________________________________________________
block5_conv4 (Conv2D)        (None, 14, 14, 512)       2359808   
_________________________________________________________________
block5_pool (MaxPooling2D)   (None, 7, 7, 512)         0         
=================================================================
Total params: 20,024,384
Trainable params: 0
Non-trainable params: 20,024,384
_________________________________________________________________
Size of train: (11839,)
Size of CV: (1480,)
Number of classes: 37
Loading train images
(11839, 224, 224, 3)
Loading test images
(1480, 224, 224, 3)
Training Now
Epoch 1/10
370/370 [==============================] - 51s 139ms/step - loss: 67.0594 - acc: 0.1618 - top_k_categorical_accuracy: 0.3864 - val_loss: 29.2100 - val_acc: 0.4223 - val_top_k_categorical_accuracy: 0.6932
…
